model_nn.pth (torch, 38354 bytes, 6 tensors)

model.0.weight f4 [64, 42]
00000000: 1244 1cbd 1ef7 ea3d 8c28 d8bd 603d 1e3d
00000010: 144f aabd 2123 15be f0d0 c6bc 76a4 1cbe
00000020: 18a2 06be 6ae8 963d 743a c13d 200c 053d
00000030: 2848 8f3d 4425 babd 04c0 1bbe c82a b4bc
00000040: 28bf a7bd 5f99 083e f81f 4b3d 400b cbbb
00000050: 5d6c 15be 0515 81bd 28bb 213d 1e39 15be
00000060: e0eb b0bb 0062 02be 98e1 a7bd dc37 513d
00000070: 82d1 d13d 48f3 91bc bcd4 263d 7a58 d5bd
00000080: 0e81 8fbd 74b3 a0bd 20a9 38bc 3741 11be
00000090: be9f d4bd 2e04 24bd 6e81 d9bd bca5 bfbd
000000a0: b077 9f3c 4200 90bd c2da a0bc 355c 7b3e
000000b0: aa5d 763e 610a 973e d92b 8d3d 1384 7d3e
000000c0: 66af 49bd 4545 a83e 8234 6ebe ab6f 813e
000000d0: c276 eabd ff57 bc3d a2cc bcbc 298e 6c3e
000000e0: 4e5e 0bbd 012c b13e 40ea 74be b092 a53e
000000f0: 85a8 793e 10c4 9e3e 01d1 73bd b117 113e
00000100: c58d 29be 76d4 8abc 9bea 11be 619f 3cbe
00000110: 5635 8d3e 36ac 5c3e 9529 863e af0e b8bc
00000120: 1160 163e ce1d 9fbe bf7e 1b3e adab 4ebe
00000130: 576b a73e 63b5 2b3e 7686 8e3e e80d 223d
00000140: 5779 023e 0cb6 dbbd 982f 873b 8d44 83be
00000150: b066 98bd 58d7 e9bc c15b 46be 4565 cc3b
00000160: a5ad 46be 2ea9 bebd 8525 51be 4ceb 883e
00000170: ef13 39be f6b4 7a3e 4429 583e 16b9 583e
00000180: ed96 ad3d 9f80 c43d 37f1 593e 7e87 f7bd
00000190: f547 b23d 21f2 7bbd 2104 323d 9ccc b33d
000001a0: d389 9d3d 68df 923e 0103 833d fca5 d7bd
000001b0: bdf3 963e 14da 6cbe 2217 37be bb8f a23e
000001c0: 1080 583d 0656 a83e 1393 123d e03c 7f3e
000001d0: 0396 1abe 7fa3 9f3e 5bae 4f3d bd41 f03d
000001e0: 9aa0 2abe b9cf 5a3e ef6f a6be 5fa9 ae3e
000001f0: 196a 25be fa78 003e 2ee7 013e e4dd 33ba
00000200: ade0 19bc 1844 523d 0e02 d93c e2c1 7c3e
00000210: 3ac3 343e 3d7d 8a3e 2201 c93b 03ba 2d3e
00000220: bdfa 72be 2cbc 8a3e faac f9bc 07d6 3c3e
00000230: fb95 8e3d bc16 b9bd c37c 153e a400 6abe
00000240: f6cf cabc 2820 813e 2285 0ebe d712 603e
00000250: 48f3 6c3d 839f 2ebe bc6a fcba 831a 7cbe
00000260: 6691 23be 06f2 8e3e 4bd5 af3b 785b 913e
00000270: 344e 34be 8942 913e d829 40be 777c 6b3e
00000280: 25a7 4cbd ed2b f43d 590e 24bb 26b6 9b3e
00000290: 80b6 81be 61fc a33d 3992 8ebe 8de1 9b3d
000002a0: 6562 443e da2a e23d 70d0 063d 0f19 b33c
000002b0: 7452 22be 314e e23d 913d 0fbd d623 933d
000002c0: a2e6 a13e ec79 66be ac1e 11bd e624 693e
000002d0: f9f4 83be 9a40 193e 79b2 e3bd 3933 94be
000002e0: f4b2 d53d 1c7d abbe 73c2 92bd a3e5 223e
000002f0: ded3 a53c a205 493e b3fd 323e a067 6fbe
00000300: 3e5e 3b3e 6b0d 7dbe 73ce d33d 8b6d 343e
00000310: 5bba cb3d 20f9 ff3d 1cd1 933e eecb d4bd
00000320: 41aa f03d 01c7 87be 80c9 003e 22b8 3f3e
00000330: 456d 943e 0278 973e 3d87 133e adf2 9a3d
00000340: a1e8 c9bd f5e9 483e 577c cdbd 90ab 99ba
00000350: cf78 8a3e 8d01 8c3d 590b a13e c0a2 173e
00000360: 3ad9 1f3e 9e49 6e3e 8ddc 38be d103 903e
00000370: b125 593e 6570 273e 888e 3b3e a8a3 a13e
00000380: 49af 4e3e 9e99 a43e 2c1a 253d 8247 74bd
00000390: c14e 0b3e 366e 753e 597b 4d3e 5cfc f23d
000003a0: 0d8b 9f3d ab9f 2abe cc2b 513e bc60 83be
000003b0: 699a a7bd b620 a93e 2fd2 0abc 8a46 2abd
000003c0: 6b46 353e 2235 6fbe f8df 323e 309b 81be
000003d0: c987 1ebe 2d13 d5bc 993d 48be af93 54be
000003e0: 0402 2f3e 6cea 8fbe 1f09 273e aa74 9dbd
000003f0: b2c8 823d 861b 1d3e a7ec e43d 9294 3dbe
-0.038150854 0.11472915 -0.10554609 0.03863275 -0.08315864 -0.14564182 -0.024269551 -0.15297112
-0.13147771 0.07368548 0.09434977 0.032482266 0.069961846 -0.09089139 -0.15209967 -0.021993056
-0.08190757 0.13339756 0.049591035 -0.0061964095 -0.14592119 -0.06302837 0.039485127 -0.1457257
-0.0053992122 -0.12732697 -0.081973255 0.051078662 0.102450386 -0.0178162 0.040730223 -0.10417266
-0.07007037 -0.07846728 -0.011270791 -0.14185034 -0.10382031 -0.04004305 -0.1062039 -0.09357783
0.019466251 -0.07031299 -0.019635562 0.24546893 0.24059168 0.29500106 0.06893129 0.24757414
-0.04923954 0.32865348 -0.23262218 0.25280508 -0.114484325 0.091964714 -0.023046795 0.23101105
-0.034025483 0.34603885 -0.23917484 0.32338476 0.24380691 0.3100896 -0.059525494 0.14169194
-0.16557987 -0.016947012 -0.14249651 -0.18420173 0.27579755 0.21550068 0.262036 -0.02246794
0.14685084 -0.31077427 0.15185069 -0.20182677 0.3269908 0.16768412 0.2783696 0.039564043
0.127416 -0.10728082 0.0041255467 -0.25638238 -0.07441461 -0.028545067 -0.19370939 0.006237658
-0.19402178 -0.09309612 -0.20424469 0.26742017 -0.1807401 0.24483094 0.21109492 0.21164355
0.084760524 0.09594845 0.21283422 -0.1208639 0.08705131 -0.06151021 0.04346097 0.087792605
0.076923035 0.2868607 0.06397057 -0.10529706 0.29482833 -0.23130065 -0.17879918 0.31750283
0.052856505 0.3287813 0.035784792 0.24925566 -0.15096287 0.31179425 0.050703388 0.117312886
-0.16662827 0.21368302 -0.32507274 0.34113595 -0.16153754 0.12546149 0.12685844 -0.00068613724
-0.009391946 0.05133447 0.026490238 0.24683335 0.17652598 0.27048674 0.0061341682 0.16965489
-0.23728462 0.2709669 -0.03047799 0.1844102 0.069622 -0.09037539 0.14598374 -0.22851807
-0.024757367 0.25219846 -0.13917974 0.21882187 0.0578492 -0.17053036 -0.0019257884 -0.24619488
-0.15973434 0.27919024 0.0053660027 0.28390098 -0.17607957 0.28371075 -0.18765962 0.22996698
-0.04996409 0.11922441 -0.0025032966 0.30412406 -0.2533455 0.08007122 -0.27845934 0.0761138
0.1917816 0.110433295 0.032913625 0.021862535 -0.15851766 0.1105007 -0.034970824 0.071845695
0.3162127 -0.22507447 -0.03542964 0.22767982 -0.25772837 0.1496605 -0.11118025 -0.2894533
0.10434523 -0.33493888 -0.071659945 0.15907912 0.020242628 0.19631055 0.17479591 -0.23379374
0.1829767 -0.2471215 0.103421114 0.17619912 0.09947654 0.12498689 0.28870475 -0.10390459
0.11751223 -0.26519015 0.12576866 0.18722585 0.28989616 0.29583746 0.14407058 0.07565818
-0.098588236 0.19620498 -0.100334816 -0.0011724103 0.27045295 0.06836233 0.3145397 0.14808178
0.15610209 0.2327027 -0.18052883 0.28127912 0.21205784 0.16351469 0.1831609 0.31570172
0.20184053 0.3214845 0.040308163 -0.059638508 0.13604261 0.23967823 0.20066585 0.1186454
0.07790194 -0.16662471 0.20426863 -0.2565974 -0.08183748 0.3303277 -0.008472963 -0.041571178
0.17702644 -0.23360112 0.1746825 -0.2531371 -0.15481485 -0.02601012 -0.19554748 -0.20759462
0.17090613 -0.28108537 0.16312073 -0.076882675 0.06385936 0.1534253 0.1117795 -0.18513706

model.0.bias f4 [64]
00000000: 1715 0e3e 8a93 56bc 63a6 2e3d b8d3 183e
00000010: 7849 74bd 82e9 f3bd e548 de3d 703a 3c3d
00000020: edae 6a3e fc03 803e 393a cd3d 4f87 7b3e
00000030: 1a1e 9a3d ebe3 fb3d 0cac 0d3e a665 983e
00000040: e7ec fb3d 1e16 d13d 2e05 873d e701 2d3e
00000050: d812 de3c e974 933e 9da9 523e 8eba a23d
00000060: f340 59bd 81d5 edbd 2698 22bc b772 633e
00000070: ded7 29bd 1ec1 6f3e 09f2 863d b59b 983e
00000080: acb6 093e 7ce3 de3d 3225 b03e e4ac 713d
00000090: 4f0d 693d ec49 4c3d 88f6 d0bd 1a5b 773c
000000a0: 7e72 303e 9a6b 9c3d 000e 773c ea8a 4e3e
000000b0: 9695 633e efe1 41bd 316b d03d 3655 acbc
000000c0: f8f2 f4bb 5a07 9e3e 9728 13be a2cb 76be
000000d0: 5181 333c 0d91 623e 86a1 ab3d e810 0b3e
000000e0: b165 823d d9ba 1abe 4919 183e 40b1 0fbe
000000f0: d774 a53d d849 5b3e 028e c33d bf6d 553e
0.13875233 -0.0130966995 0.042639147 0.14924514 -0.059640378 -0.119097725 0.10853747 0.045954168
0.22918291 0.2500304 0.10020871 0.24563335 0.07525273 0.12299331 0.13835162 0.29765052
0.12301045 0.10209297 0.06592785 0.16895257 0.027108595 0.28800133 0.20572515 0.07945739
-0.053040456 -0.11612988 -0.00992397 0.22211729 -0.041465633 0.23413512 0.06589133 0.29806295
0.1344859 0.10883233 0.34403378 0.059002772 0.056897458 0.049875185 -0.10203272 0.015097404
0.17231175 0.07637711 0.015079021 0.20170179 0.22225031 -0.047334608 0.10176695 -0.021036725
-0.007475253 0.30864984 -0.14370953 -0.24101117 0.010956124 0.22125645 0.083804175 0.13580668
0.06367052 -0.15110339 0.14853396 -0.1403246 0.08078926 0.21414888 0.0954857 0.20842646

model.2.weight f4 [64, 64]
00000000: 68eb 213d 3635 2b3e 8349 ddbd 749e 393e
00000010: 66a5 053e 40c6 673e 175a 44be 885a acbd
00000020: 3c60 0e3e 174c 693c 75ae 323e be36 d53d
00000030: d7d5 1a3e 5c8c a2bd 829b 40be aa59 2e3e
00000040: 8529 9a3d a58f 7f3e c88a a1bd ef5b c23b
00000050: 62c2 32be 4c1d ee3d ece7 173e 36e5 883e
00000060: 008f 4c3e c77c f03d c684 5d3e ba17 c8bd
00000070: 3c52 d4bd 95fc 923e 3257 a53d 5ad9 cbbd
00000080: 38e9 33be 038e 60bd b4a2 593e 00b1 293e
00000090: 8a6b 9c3e b436 87bd 5ad0 83be 2c57 6bbe
000000a0: 858e 383e 944c a4b9 e0d6 f1bb f95e 2a3e
000000b0: cc28 823d 243d 84be d323 cf3d 336f 9b3d
000000c0: 2e5f 03be c8ed 67be 4a6d c5bd 625f 8b3e
000000d0: 716e 693d 6445 993e a000 613e ef61 b53e
000000e0: 7783 05be ebd5 383d e9f1 163e 9c24 c2bd
000000f0: e64a d13d 56ff 253e 6075 f7bc 151a 653e
00000100: 0019 823d f1fd bcbc b35b 58be c7b7 91bd
00000110: c1ba 94be 06b0 a63e 9a33 933e 9704 963e
00000120: 8a0d 9c3e 5e5c 0b3e 517a a83c 11ae 313e
00000130: c615 263e de20 18bd 2d2b 283e 43aa 0e3e
00000140: 6922 5c3e e6d9 d0bd db3a a23e 9ec8 cb3d
00000150: e3d3 7c3e 253b eebd 38b5 e73b 0110 8abe
00000160: 4b30 99be 1278 7dbe ef3a b8bd e7d8 8b3b
00000170: b2a6 d53d 20fc 71be a751 713e 1d1c 8c3e
00000180: 0301 693d 5c8e 96be e417 803d 4d56 4a3e
00000190: 0631 0cbe 5ce4 0a3d 42cc 07bc e4d7 473e
000001a0: 27d8 81be 62fc 273e e090 2a3d d241 0ebe
000001b0: 5d9e 933e 39fd 3cbe b98c 743e 969d 9dbe
000001c0: 6eeb 96be 71e2 803e 78a6 8b3c 3cf5 7fbe
000001d0: d533 943e e141 393d 4d23 85be 4f0f 0bbe
000001e0: 4489 863e 131b d4bc 0bd9 9e3e 008a aabd
000001f0: ccd1 723e c5c4 443d ae78 203e d858 be3d
00000200: 566e cd3d 917e 3e3e c0c7 dfbd 0ee2 26be
00000210: 544e f23b 14aa 88be 1202 343e 40b6 803e
00000220: dd9b ec3d af4c 9d3e 9089 89be 2340 303e
00000230: 1e87 7dbd 5bc0 aabd 6074 893e 5179 5dbe
00000240: c913 7b3e 3efe 6bbe f04b 77bd 757b 973e
00000250: b0fc 913e 7e8b 853e 31ac a3be 1f16 40be
00000260: dd8b 1abe 18d4 11be d548 a43e b25f fabd
00000270: b0cf b5bd d2d0 963c 7910 77be 0fe8 283e
00000280: df47 4abe 7ce3 893d 205a 6b3e 0c33 903e
00000290: b43f 8f3e 4075 6ebd 46ef c1bd d01a 683e
000002a0: f42d afbe 6b11 bc3d d4ea fb3d bdf7 3dbe
000002b0: 4e2e 323e ed48 98be 7fa8 743e 54bc 0cbe
000002c0: 8030 5dbc 016e ae3d 4017 e93d 6f59 23be
000002d0: d176 2cbe e8d1 73be b72d e73d f7ad 93be
000002e0: 611c 923e 0095 d03d b1d6 633e 5022 ebbd
000002f0: cd51 6d3d d09f 73be ad8d 053e 5ced b93d
00000300: 50a9 673d 3fa6 1b3e 3509 eebd a617 89be
00000310: 1e84 8abe cc82 f73d 2f60 653e 5e3e c93c
00000320: cb7f 82be 839d 27bd afa8 483e 12de 303e
00000330: f142 153d a975 ebbd 83b9 0e3e 8aa6 a43e
00000340: 60d8 733d 3baa 14be 6dd7 9d3d fac8 703e
00000350: ab76 8ebc c9aa 3b3d 409b 313e 3628 8abe
00000360: 8174 07bd 0803 f5bd 7ebd 6abe 16cd 02be
00000370: 7ce7 2f3d 6a1f 043e 574b 883e cf85 f83c
00000380: 3f9a 25be fd81 a2bd 2864 863d ac74 e0bd
00000390: a3d3 70be 489f a1bc 2bdd 74be 032d 0f3d
000003a0: d291 44be 3f9d e13d 704c 753d e368 063e
000003b0: db16 d03d e1b5 533e ed9a 5a3e 31fa e9bd
000003c0: c612 cc3d 1fa8 7c3e 5041 a23c 93e4 7abe
000003d0: d37a 57bd ae86 2b3d 0c5c 91bb 41ac d13c
000003e0: 77a1 513e f297 e83d 889e 753e 3037 d63c
000003f0: 97a8 093d 5c3c cb3d ab11 383c 4833 833e
0.03953114 0.16719517 -0.10805037 0.18126851 0.13051376 0.2263422 -0.19174992 -0.08415705
0.13903898 0.014239333 0.17449363 0.10410832 0.15120636 -0.07936928 -0.18809322 0.17026392
0.075274505 0.2495714 -0.078877985 0.0059313695 -0.17456964 0.11626682 0.14834565 0.26737374
0.19976425 0.117425494 0.2163268 -0.097701505 -0.103672475 0.2870833 0.08073272 -0.09953566
-0.17569435 -0.054822933 0.21253473 0.16571426 0.30550796 -0.06602231 -0.25744897 -0.22982472
0.18023117 -0.00031337573 -0.0073803514 0.16637792 0.06355438 -0.25827897 0.10114255 0.07589569
-0.12829277 -0.226493 -0.09639986 0.2722121 0.05699009 0.29935753 0.21972895 0.3542628
-0.13038431 0.045125883 0.14740719 -0.09479639 0.10219364 0.16210684 -0.030207336 0.22373231
0.063524246 -0.023070307 -0.2112873 -0.07115131 -0.29048732 0.3255617 0.28750306 0.29300377
0.3047908 0.13609454 0.020566138 0.17351557 0.16219243 -0.03714072 0.1642272 0.13932137
0.21497501 -0.10197811 0.31685528 0.09950374 0.24690203 -0.11632375 0.0070711635 -0.26965335
-0.29919657 -0.24752834 -0.08995616 0.0042678 0.10432185 -0.23631334 0.23566304 0.273652
0.05688573 -0.29405487 0.06254557 0.19759484 -0.13690576 0.033909187 -0.008288445 0.1951595
-0.25360224 0.1640487 0.04164207 -0.13892296 0.2883176 -0.18455972 0.23881806 -0.3078429
-0.29476494 0.2517276 0.017047152 -0.24995893 0.28945795 0.045228843 -0.26003495 -0.13580059
0.262766 -0.025891816 0.31024966 -0.08327103 0.23712844 0.048039217 0.15671036 0.09294289
0.100308105 0.18602969 -0.10926771 -0.1629717 0.0073945913 -0.2669226 0.17578915 0.25139046
0.11553166 0.30722567 -0.26862764 0.17211966 -0.061896436 -0.0833747 0.268466 -0.2162831
0.24519266 -0.23046204 -0.060375154 0.29586378 0.28513098 0.26082987 -0.3196731 -0.18758439
-0.15092416 -0.14241064 0.32086816 -0.12225284 -0.08877504 0.01841012 -0.24127378 0.16494773
-0.19753979 0.06732842 0.22983599 0.28163946 0.2797829 -0.058217287 -0.09469466 0.22666478
-0.34214747 0.0918301 0.12300649 -0.18551536 0.17400476 -0.29743138 0.23892401 -0.13743716
-0.013500333 0.08517075 0.11381388 -0.15952085 -0.168422 -0.23810542 0.11288016 -0.28843662
0.28537276 0.101846695 0.22249867 -0.11481154 0.05793934 -0.23791432 0.13042326 0.09078476
0.056557953 0.15200137 -0.1162285 -0.26775855 -0.27053922 0.120854944 0.22399972 0.024565872
-0.25488123 -0.0409217 0.19595598 0.17272213 0.036440793 -0.11497051 0.13937955 0.3215831
0.059532523 -0.14518063 0.07707105 0.23514166 -0.01739057 0.04581717 0.1734438 -0.26983804
-0.03307009 -0.11963469 -0.22923848 -0.12773547 0.04294537 0.12902609 0.2661998 0.030337242
-0.16172121 -0.079349495 0.06562072 -0.109597534 -0.23518233 -0.019729272 -0.23912494 0.034955036
-0.19196251 0.110163204 0.05988735 0.13125949 0.10160609 0.2067485 0.21348162 -0.11424673
0.09964518 0.24673508 0.019806534 -0.24501257 -0.05260737 0.041876487 -0.0044360217 0.025594832
0.2047175 0.11357106 0.23986256 0.026149362 0.033608045 0.09923622 0.011234681 0.25625062

model.2.bias f4 [64]
00000000: 6b63 483e bcda 393e 940b 433d 2717 633d
00000010: 1539 e33c 82ac 8f3d 3bdb 823e 14e4 233e
00000020: f4cd 67bd 2d07 dcbd 06b2 6a3e 7d11 a03c
00000030: 43e7 5c3c 6555 4f3e 14b9 5fbe b282 313e
00000040: 6925 f93d bc57 c13d 1696 583c 30cb a0bc
00000050: 6ebc 12be e449 3d3e 94fc 92bd 9072 343e
00000060: f589 2d3e 4d0e 1d3d 4c17 30bd a699 f63d
00000070: ed12 e1bd fe35 b5bd f783 46bd e269 b1bd
00000080: 5a54 3d3e 905b 6e3e 7dd1 483e 5cb3 2d3d
00000090: c476 82bd 7f29 1b3e 87c6 8d3d 03c0 113e
000000a0: 1135 bcbd e61b 063e 900e b8bc b8ca 043e
000000b0: b47d f53d 8ae7 dfbd ebd1 633e 5fe6 1d3e
000000c0: dcb2 053e 40c1 33be f6d6 e7bc 6487 8bbd
000000d0: d14a c5bd d600 923d ead9 0c3d b096 4b3d
000000e0: 4130 fb3d e405 b3bc f960 f6bd d16d 6dbc
000000f0: a45f e73d 44fe f03d 8538 9f3b e526 0cbe
0.19569175 0.18149847 0.047618464 0.055442 0.02773718 0.07015325 0.25557885 0.16004974
-0.056592897 -0.10743556 0.22919473 0.019539589 0.013482871 0.20247419 -0.21847945 0.17335013
0.121653385 0.09440562 0.013219377 -0.019628137 -0.14329693 0.18485218 -0.07177082 0.17621827
0.16947158 0.038343716 -0.042990968 0.12041025 -0.10989938 -0.08848189 -0.048465695 -0.08662774
0.18489209 0.23277116 0.19611163 0.04240738 -0.06370309 0.15152548 0.06922632 0.14233403
-0.09189809 0.1309658 -0.022467881 0.12967956 0.119868666 -0.109328344 0.22248046 0.15419911
0.1305651 -0.17554188 -0.028300744 -0.06812933 -0.09633411 0.07129066 0.034387507 0.049704254
0.12265063 -0.021853395 -0.12030215 -0.014491514 0.11297539 0.11767247 0.0048590326 -0.13686712

model.4.weight f4 [31, 64]
00000000: d137 89be 0086 7d3e 0c37 3bbc 1da1 803e
00000010: 1d39 a23d a3de 6a3e 5fad 11be 53ea 95bc
00000020: 90e6 5cbc f3e4 c93c 100f 8abc de47 4cbd
00000030: 5338 21bd 5e35 203e f026 cebe 2142 8bbd
00000040: 7b2b 8a3d 6220 143d 7f80 183e 58a8 ef3d
00000050: b438 4f3e 895c c4bc 3ebb f9bc 32fb 843d
00000060: 8330 e93c 7335 ca3d 2af4 873d 7872 723b
00000070: a104 993e 3791 ce3c 32ee 153e 8235 6dbd
00000080: 23f8 883d 9d50 59be 7976 a8bc e9f3 9fbe
00000090: 4c5b e6bd b833 f5bd 6a7d 77be 7134 c0bd
000000a0: 1929 3e3d 6b97 333e 3e32 ebbd ae45 65be
000000b0: ad26 6a3e b7eb 603e 40b0 49be 0ef2 11be
000000c0: 3431 8e3d 73b0 66bc 960c 42bd 30f4 edbd
000000d0: d52c 3fbd 5408 7f3e a5b5 08be dcad c43d
000000e0: 2e3f b53d 5c00 963e 23f5 ddbd 7809 9b3d
000000f0: 3b08 be3d c6ab a23d c75c ae3d 9b1f 5d3e
00000100: 0563 b2bb 9d72 7d3e cd95 863e 2435 63be
00000110: 8422 713e d57e be3d 47f1 6ebe e3aa 283e
00000120: 40e7 4c3b ae0c 36bc 52ff 0d3e 0dd4 7b3e
00000130: be91 6ebe eb47 82be 5894 35be 4bdd 3f3d
00000140: f6ae 793e f85a 953d 8340 883e 4c5a 35bd
00000150: dfe6 693d fe75 d5bd b5b1 253d 5cfd 57be
00000160: 69ec e63d 0200 c13d 5028 90bd bdef 2b3e
00000170: dd6b bb3d 3f0d ed3c c223 433d fd0e 27bd
00000180: 143d 7d3d b802 55be e877 f83d 74c6 153e
00000190: f0b2 71bd ac7f 3dbe a10b 0d3e e032 88be
000001a0: ab9a 663e 669a 153e f4f1 44bd 6e6a c23b
000001b0: cfb5 a7be 0a47 a63d 2c73 d63d 2d9e 72be
000001c0: cf5a 1b3b f88c a33d ec9b 8bbd e0fc 633d
000001d0: ea46 d6bd 8bbe 29be 02e5 b8be 7cef 193c
000001e0: 16c5 bf3d 256b 283c 653d 2fbc ce52 7fbe
000001f0: b127 ea3d 4719 213d 12bf 2cbe 5c83 a2be
00000200: f9a8 753d a98b 00be da6a 89be 3623 84be
00000210: 955f 953e 2195 ac3d b7ae 29bd df4a 09bc
00000220: 5a5a 8a3d 3014 05be afb9 b3bd 12ae 393e
00000230: c813 40be 3cb5 5e3d 5bb2 39be e179 853d
00000240: f8a6 2b3e b2be 2d3e 51d0 2a3e e066 cabc
00000250: a827 2d3e ae40 11be 9c11 873d b79d b3be
00000260: c491 603e b91d a93c 60fe 0abc 2953 bb3d
00000270: 6fbb 55be 8a30 8a3d 1527 553e 7768 a93d
00000280: 98d9 3f3e 06a2 943d 2648 32be f336 a0be
00000290: e046 e6bd 6332 71be a587 6e3e c2f5 f33c
000002a0: 1853 1dbd a17e 9dbd 3afd d33d 2914 b33c
000002b0: 93d9 a4be 0ce1 833d 41a6 5a3e 29f7 35be
000002c0: b413 55be 864d 523d e88f 6ebe 40a4 0b3d
000002d0: 97ab d53d d12f 123e afb4 193e 86ba 223e
000002e0: f878 513e 0363 4fbe 1c7d 8e3d bc5a ad3e
000002f0: 6fb3 68be 40e0 95bd e401 5fbe 7e85 f13d
00000300: 2f90 2bbe ad3c a93e 42f2 0d3e b68c 533e
00000310: 21de 52be 4289 dfbd 02a2 50be 160d 5e3e
00000320: f49e 903d 4f5c 86bd dc28 873e 4c75 63be
00000330: 0017 4a3e 2022 d83d 6c95 50be 3bde 42be
00000340: 97b0 7fbe 7a1a 67be d775 b23c ccd7 563d
00000350: ad87 5cbd 2727 8b3d eaed 5bbd 60c1 413e
00000360: 10ea d83d 8e92 73bd f0f7 5bbc c5fc 19be
00000370: 693a 203d 96d1 bc3d 43b9 85be 8f08 bdbd
00000380: 363d fcbd e3b7 563e 324e d43d f73d 993e
00000390: f6d6 b6bd 1e7f 8abe 69e4 97be 9799 f3bd
000003a0: a3dd 3abe 56ee 9b3e b8f6 a63c e3ff 963e
000003b0: d768 823e aaa3 5fbe bbc7 48be d19e 913e
000003c0: 8fa2 13be 3437 94be 49d6 733e 407d ccbc
000003d0: 344c a2bd 16c4 93be 8624 6ebe b328 84be
000003e0: 21fc a2be 77ee a93e 8341 e4bc cf3d 92be
000003f0: 037a 243e 6fca 243e e8b1 1b3e 6906 c3be
-0.26800397 0.24758148 -0.011426698 0.2512292 0.0792105 0.22936492 -0.14226292 -0.018300211
-0.013482705 0.024645304 -0.016852885 -0.049873225 -0.039360356 0.15645358 -0.40264082 -0.067997225
0.067465745 0.036163695 0.14892767 0.11702031 0.20236474 -0.023969905 -0.030484792 0.06493224
0.028465515 0.09873476 0.066383675 0.0036994498 0.29886344 0.025215728 0.14641646 -0.057912357
0.06687953 -0.21222158 -0.020564305 -0.31240776 -0.11247882 -0.11972755 -0.24168935 -0.093850024
0.046425913 0.1753823 -0.11484192 -0.22389862 0.22866316 0.21964918 -0.1969614 -0.14252493
0.069429785 -0.014080155 -0.047375284 -0.11618841 -0.046673615 0.2490552 -0.13350542 0.096034735
0.08849941 0.2929715 -0.10837772 0.075701654 0.092789136 0.079429194 0.085137896 0.21594088
-0.005443933 0.24750753 0.26286164 -0.2218824 0.23548323 0.09301535 -0.23334228 0.16471438
0.0031265765 -0.0111114215 0.13866928 0.2459261 -0.23297784 -0.25445494 -0.1773237 0.0468419
0.24383149 0.072927415 0.2661172 -0.044275567 0.05710494 -0.10422896 0.040452678 -0.21092743
0.112755604 0.094238296 -0.07038939 0.16790672 0.09151433 0.02893698 0.047641523 -0.04078578
0.061825827 -0.20801818 0.12132245 0.14626485 -0.05900854 -0.18505734 0.13773967 -0.26601315
0.22519939 0.1460968 -0.048082307 0.0059330976 -0.32755896 0.081190184 0.10471186 -0.23693152
0.002370525 0.07985872 -0.06816849 0.055661082 -0.104627445 -0.16576593 -0.3611222 0.009395476
0.09363763 0.0102794515 -0.01069579 -0.24933931 0.11433352 0.039330747 -0.16869763 -0.31740844
0.059975598 -0.12553276 -0.26839334 -0.25808114 0.29174486 0.084268816 -0.041426387 -0.008379667
0.067555144 -0.12995982 -0.08775651 0.18132809 -0.18757546 0.054372057 -0.18134443 0.06517387
0.16762912 0.16967276 0.16681029 -0.024707258 0.16909659 -0.1418483 0.065951556 -0.35081264
0.21930605 0.020644056 -0.008483499 0.09146721 -0.20872281 0.06747539 0.2081569 0.08271878
0.18735349 0.07257466 -0.17410335 -0.31291923 -0.11243987 -0.23554377 0.23293932 0.029780272
-0.038409323 -0.07690168 0.103510335 0.021860199 -0.32197246 0.06439409 0.21352483 -0.17770065
-0.20808297 0.051343463 -0.23297083 0.034092188 0.10433119 0.14276053 0.15010332 0.15891466
0.20456302 -0.20252614 0.069574565 0.33858287 -0.22724698 -0.07318163 -0.21778065 0.1179304
-0.1675422 0.33054104 0.13861945 0.20659146 -0.20592548 -0.10914852 -0.20374301 0.2168468
0.07061568 -0.06560575 0.2639836 -0.22212714 0.19735336 0.10553384 -0.203695 -0.19030087
-0.24969707 -0.22568694 0.021784706 0.052451894 -0.053840328 0.06794577 -0.05369369 0.18921423
0.10591519 -0.059465937 -0.013425812 -0.1503783 0.039118204 0.09219663 -0.26117906 -0.09230148
-0.123163626 0.20968585 0.10366477 0.29930088 -0.08927719 -0.27050108 -0.2966645 -0.11894529
-0.1824861 0.30455273 0.020381317 0.294921 0.2547061 -0.21839777 -0.19607441 0.2844148
-0.1441748 -0.28948367 0.23812212 -0.024962068 -0.07924691 -0.2886054 -0.2325612 -0.258123
-0.31832984 0.33189747 -0.02786327 -0.2856278 0.16062169 0.16092847 0.15204585 -0.38090828

model.4.bias f4 [31]
00000000: 56d2 543d cb94 30bd 71e1 873d 46bc 723c
00000010: 2a2d 83bd 9fc7 c33d 04c3 5f3d 8311 0f3e
00000020: 81e2 22bd 815b cc3c 96f9 893c 8f2a f0bd
00000030: bbdf 24bd 2ff9 02be 6809 a13c 2692 133e
00000040: 55c0 a0bb 8799 febc c813 e93c 8766 413d
00000050: 1a4c 26bd 3f26 313e 0038 2bbd 75ad 95bd
00000060: f451 adbc bc3d 903d de81 d83c 9278 81bb
00000070: a650 01be 98e5 f63c e9d9 273d
0.051958404 -0.04311065 0.066347964 0.014815396 -0.06405099 0.09559559 0.05462934 0.13971524
-0.039766792 0.024945976 0.016842645 -0.117268674 -0.04025243 -0.12790368 0.019657806 0.1441122
-0.0049057403 -0.031079067 0.028451815 0.04721692 -0.04059992 0.17299746 -0.041801453 -0.07308475
-0.021157242 0.07043025 0.026429113 -0.0039511407 -0.12628421 0.030138776 0.0409793
