model_nn.pth (torch, 37586 bytes, 6 tensors)

model.0.weight f4 [64, 42]
0.12708402 -0.0068288725 0.12997513 -0.21887454 0.0061999233 -0.20073378 -0.14074272 -0.14450009
0.0017060009 -0.07170341 -0.058226503 -0.12349523 -0.15416946 0.11032263 0.10990834 -0.044056904
0.13969111 -0.17709078 -0.006479034 0.16077031 0.10094056 0.13982762 0.22265391 -0.029740961
0.09294563 -0.22872655 0.08910128 0.18572077 0.07255283 0.26366356 -0.042240173 0.31523582
-0.038615916 0.18997876 0.09192641 0.14347352 0.17781535 0.28630278 0.1469115 0.14543237
0.11041606 0.018258318 0.15798195 -0.17782769 -0.1849027 -0.060831852 -0.034550253 -0.09502832
0.017392077 -0.03548476 0.28211296 -0.15306348 -0.28236037 0.28497332 -0.26248127 0.25517765
-0.10939862 0.2492894 0.15509377 -0.0053238748 -0.1385582 0.2974146 0.12219494 0.18889657
0.08021004 0.025776267 0.00090213394 0.21496905 0.051767945 0.28286743 -0.07023773 0.20687768
-0.1759448 0.27049452 -0.03443966 0.26879144 0.1539274 0.05365226 0.21804751 0.14187616
0.003914344 0.24501218 -0.05053413 0.07670504 0.23743466 0.08402338 0.08273213 0.05199136
0.27501073 -0.02953992 -0.11546118 0.11114623 -0.22211242 0.26021227 0.3076284 0.24203052
0.10490268 0.10584561 -0.011852691 0.18304603 -0.031965487 0.20674755 0.10122317 0.2587494
0.10572608 -0.05310335 0.17874356 -0.2934867 0.018823853 -0.29896513 0.044569857 0.0439821
0.16197997 -0.047509316 0.2562486 -0.24738 0.09188414 -0.13822451 0.027065918 0.11700409
-0.026812915 -0.27094567 0.19197825 -0.20175946 0.22843204 -0.100789465 0.23189282 -0.018466072
0.035082318 -0.24573573 0.12581153 0.0019592745 0.19793417 -0.22002475 0.25974938 -0.15492386
-0.14621916 0.33169565 -0.20032391 0.13239405 -0.057394248 0.30425194 -0.0007596456 -0.17537527
-0.030967122 0.23806748 0.028297506 0.34604383 0.037235133 0.16681597 0.008641983 -0.03160937
0.012734521 0.32696283 0.047158353 0.32878152 -0.07651286 0.015667804 0.22422485 -0.23659746
0.30083433 0.11767193 -0.021462305 0.12261451 0.024786225 0.07125664 0.018653436 -0.14347392
0.02298967 -0.22277407 -0.2775825 -0.046978526 -0.23135579 -0.30647627 0.06784117 -0.1601785
0.07436136 -0.17920582 0.23067443 -0.0400811 0.2231874 -0.0169155 0.15999229 0.13838263
0.23727548 0.32020274 -0.03219693 -0.2627386 0.05303085 0.27959722 0.14525197 0.06406948
0.054655798 0.28177753 0.006319185 -0.20226586 0.022623122 0.011821716 0.26523206 0.27602375
0.18756971 0.0941966 0.20857696 -0.23922022 0.0020280664 0.17239995 0.018003803 0.28574583
0.14480694 0.037286934 0.06042306 0.068322174 -0.08207798 0.031477004 -0.04607012 -0.16564779
0.07586554 -0.21228354 0.15462977 -0.11843155 0.044983543 -0.3031014 -0.007612668 -0.01821071
0.14333212 -0.078865565 0.1722898 -0.17851488 -0.04949634 -0.032256827 0.1409566 -0.078816116
0.18704888 0.17832844 0.17441627 0.25055602 0.0008525532 -0.08571968 0.16025226 -0.026050901
-0.019715808 0.31663623 0.00012315655 0.2321056 -0.038536638 -0.07179976 -0.02402461 0.12730913
0.1734298 0.06404965 -0.15343326 0.32503906 0.23903061 0.22512217 -0.06732759 0.1210839
00000000: 5022 023e bcc4 dfbb 3318 053e a620 60be
00000010: ba28 cb3b 288d 4dbe dc1e 10be d5f7 13be
00000020: e49b df3a 3dd9 92bd ea7e 6ebd 11eb fcbd
00000030: 99de 1dbe d5f0 e13d a017 e13d 0375 34bd
00000040: 300b 0f3e 4957 35be 144e d4bb f9a0 243e
00000050: edb9 ce3d f92e 0f3e 63ff 633e 51a3 f3bc
00000060: 475a be3d 4b37 6abe bb7a b63d 962d 3e3e
00000070: 9496 943d e9fe 863e 0804 2dbd 9766 a13e
00000080: b92b 1ebd cb89 423e ea43 bc3d b9ea 123e
00000090: 3a15 363e 4796 923e f86f 163e 39ec 143e
000000a0: d121 e23d 7892 953c 05c6 213e 7618 36be
000000b0: 2257 3dbe d22a 79bd 9184 0dbd 359e c2bd
000000c0: d479 8e3c 7858 11bd 1c71 903e acbc 1cbe
000000d0: 8a91 90be 06e8 913e f263 86be a5a6 823e
000000e0: 620c e0bd b845 7f3e e7d0 1e3e e673 aebb
000000f0: 33e2 0dbe ba46 983e 5741 fa3d 1a6e 413e
00000100: 2945 a43d c028 d33c 2f7d 6c3a d920 5c3e
00000110: a00a 543d 00d4 903e cdd8 8fbd bed7 533e
00000120: e02a 34be 427e 8a3e 9a10 0dbd 089f 893e
00000130: 259f 1d3e 79c2 5b3d d947 5f3e fc47 113e
00000140: e643 803b 79e4 7a3e e0fc 4ebd 8817 9d3d
00000150: 1222 733e 7314 ac3d 776f a93d e4f4 543d
00000160: 35ce 8c3e b4fd f1bc e976 ecbd a2a0 e33d
00000170: 7071 63be 8b3a 853e 7881 9d3e d9d6 773e
00000180: 37d7 d63d 95c5 d83d ca31 42bc 6b70 3b3e
00000190: 3eee 02bd a1b5 533e 184e cf3d cd7a 843e
000001a0: ea86 d83d e682 59bd 8d08 373e e443 96be
000001b0: 7b34 9a3c f511 99be e28e 363d 9326 343d
000001c0: 14de 253e 2199 42bd 0433 833e 2f51 7dbe
000001d0: c12d bc3d ba8a 0dbe 58b9 dd3c d79f ef3d
000001e0: c2a6 dbbc 64b9 8abe f295 443e 089a 4ebe
000001f0: 17ea 693e b56a cebd 5075 6d3e 2946 97bc
00000200: 7ab2 0f3d 26a2 7bbe bdd4 003e 2c67 003b
00000210: 41af 4a3e 2b4e 61be dffd 843e 5ca4 1ebe
00000220: 7aba 15be 03d4 a93e b621 4dbe 4e92 073e
00000230: 3b16 6bbd e9c6 9b3e f422 47ba 9395 33be
00000240: c3ae fdbc f6c7 733e 2cd0 e73c a82c b13e
00000250: de83 183d ced1 2a3e 1b97 0d3c d478 01bd
00000260: 74a4 503c ac67 a73e 1e29 413d 0d56 a83e
00000270: c6b2 9cbd c459 803c 339b 653e 9b46 72be
00000280: f506 9a3e fbfd f03d b7d1 afbc 511d fb3d
00000290: 7b0c cb3c 00ef 913d 17cf 983c d4ea 12be
000002a0: d554 bc3c e31e 64be 4b1f 8ebe 8e6c 40bd
000002b0: 88e8 6cbe 75ea 9cbe 50f0 8a3d d505 24be
000002c0: c54a 983d bb81 37be eb35 6c3e 142c 24bd
000002d0: 3d8b 643e 6092 8abc 05d5 233e 2db4 0d3e
000002e0: 58f8 723e 9df1 a33e eee0 03bd ac85 86be
000002f0: e036 593d 5e27 8f3e efbc 143e dc36 833d
00000300: c2de 5f3d 2545 903e 2a11 cf3b c81e 4fbe
00000310: 2054 b93c dfaf 413c 7fcc 873e fc52 8d3e
00000320: 4612 403e 26ea c03d 3395 553e 25f6 74be
00000330: 4fe9 043b 9d89 303e b67c 933c 474d 923e
00000340: 4548 143e 2fba 183d 2c7e 773d 7fec 8b3d
00000350: 8018 a8bd 08ee 003d 06b4 3cbd 939f 29be
00000360: 645f 9b3d db60 59be 4457 1e3e 3e8c f2bd
00000370: aa40 383d 1b30 9bbe b073 f9bb a02e 95bc
00000380: a8c5 123e 4584 a1bd bd6c 303e 9bcc 36be
00000390: adbc 4abd bc1f 04bd ed56 103e 586a a1bd
000003a0: be89 3f3e bb9b 363e 2e9a 323e e148 803e
000003b0: e07d 5f3a cd8d afbd 2b19 243e b368 d5bc
000003c0: 0c83 a1bc 251e a23e 9623 0139 17ad 6d3e
000003d0: 98d8 1dbd c10b 93bd 42cf c4bc 535d 023e
000003e0: 9597 313e 772c 833d 9c1d 1dbe 856b a63e
000003f0: 71c4 743e 6d86 663e 0ce3 89bd d6fa f73d

model.0.bias f4 [64]
-0.23922879 0.24504966 0.26141304 0.05562422 0.21519612 -0.03619051 0.15680423 -0.007445996
0.16322975 0.20567241 0.18917629 0.18615419 0.26711717 0.18400306 0.020763071 0.112911075
0.046157524 -0.14767717 -0.053262565 0.071024105 -0.09765363 -0.020925779 0.03192324 0.120614514
0.21143796 0.038546845 -0.002638489 0.21490808 -0.013317287 0.121231325 0.13139217 0.12558538
-0.011696622 -0.1203923 -0.0004192635 0.08319443 -0.03776211 0.164661 0.18943603 0.027599823
-0.11265404 0.13735922 0.053711597 -0.03645574 0.044706225 -0.16967197 0.097934134 0.108818494
0.24775048 0.022305945 0.04649131 0.090124294 0.13294521 0.09348096 -0.15381974 -0.046738375
0.05392688 0.10198054 0.098244846 0.25460336 -0.07572203 -0.034798063 -0.08837807 -0.0424477
00000000: 64f8 74be 4cee 7a3e eed7 853e 39d6 633d
00000010: 5f5c 5c3e 803c 14bd 4a91 203e 8bfd f3bb
00000020: b325 273e ca9b 523e 6eb7 413e 349f 3e3e
00000030: 95c3 883e 4c6b 3c3e 5117 aa3c ec3d e73d
00000040: ac0f 3d3d af38 17be d929 5abd 1675 913d
00000050: a0fe c7bd 8a6c abbc f1c1 023d be04 f73d
00000060: 3183 583e 4ce3 1d3d 80ea 2cbb dd10 5c3e
00000070: c030 5abc 2148 f83d ab8b 063e 7499 003e
00000080: 30a3 3fbc 3d90 f6bd 98d0 dbb9 d761 aa3d
00000090: 71ac 1abd e59c 283e 85fb 413e 0619 e23c
000000a0: 29b7 e6bd e5a7 0c3e b100 5c3d 9d52 15bd
000000b0: e01d 373d 7dbe 2dbe b191 c83d 3bdc de3d
000000c0: 4db2 7d3e f5ba b63c ac6d 3e3d 1693 b83d
000000d0: ca22 083e f272 bf3d ec82 1dbe bd70 3fbd
000000e0: 6fe2 5c3d 2cdb d03d 9834 c93d 5f5b 823e
000000f0: 2714 9bbd 6a88 0ebd 90ff b4bd a4dd 2dbd

model.2.weight f4 [64, 64]
0.2864256 0.060698394 0.10724516 0.26893616 -0.18371503 -0.106484845 0.121906295 0.07481755
-0.065353036 0.25002074 -0.16773017 -0.058751557 0.25809783 -0.13581419 0.17550598 0.04102209
-0.09756548 0.11189267 0.120586835 -0.023970693 0.2146878 0.024378838 -0.24595124 -0.14134099
-0.24677742 -0.09684071 -0.108283326 -0.23318852 0.10319462 -0.070624806 -0.17473459 0.14704895
0.08602479 -0.081089854 -0.21073763 0.12257669 0.20435247 -0.12377093 0.16666047 0.27981418
0.12887584 0.014672846 0.23582086 0.24534148 -0.0011051813 0.21187799 -0.24533638 0.19920811
-0.01256759 0.17240126 -0.11995633 -0.13008799 -0.21505928 0.16870737 0.20604649 0.25568238
-0.2636476 -0.055409994 0.08923023 -0.055277605 -0.03240423 -0.25628728 0.09638043 -0.021431655
0.0860085 0.12305106 0.06504153 0.09404742 -0.22442012 -0.12828763 0.21950673 0.18200353
-0.2905893 0.221821 -0.26083204 -0.1282569 0.23785377 -0.18594292 0.15639688 -0.221364
0.19842151 -0.10025303 0.077265896 0.09122147 0.21626204 0.16124885 -0.06276902 -0.18981628
-0.10358136 0.24478689 0.0021349937 -0.26365992 0.12629722 -0.28544334 -0.06532091 0.19941309
0.1104697 -0.03644277 -0.23331414 0.23762944 0.17109923 -0.2903438 0.15565944 0.15822974
-0.13059261 -0.12021431 0.2997882 0.15352811 -0.08710881 0.18232912 0.024859054 0.16252238
-0.18726791 0.18912235 0.08571339 -0.015898058 0.2175882 0.13111016 0.019616995 0.24946569
-0.0076079313 -0.023153557 -0.00311213 -0.18716596 0.088116884 -0.2640177 0.0682363 -0.04882767
0.121417284 -0.31245512 -0.032884654 -0.09209303 -0.107434615 0.13733852 -0.1775367 0.20509504
-0.23024099 0.2514768 0.26441827 0.0869972 0.1600569 0.22406392 -0.11520584 -0.16714455
-0.112807944 -0.030619994 0.17465289 0.11697896 -0.24608345 -0.072053075 0.023145022 -0.33018166
0.2124192 0.26713184 0.09490359 0.19614623 0.2834813 0.012696045 -0.18978 -0.022144375
-0.034365624 -0.0814587 0.13315918 -0.055298734 -0.1664065 0.2754335 -0.10035896 -0.14264561
-0.31187302 0.03346774 0.22817327 0.07558058 0.23846102 -0.25353146 -0.075207606 -0.13996026
-0.26209402 -0.17017817 0.051886186 -0.026639115 0.27592736 0.11521137 0.004427424 0.2487927
0.043397404 0.13969849 0.21269399 0.2543282 0.05185905 0.1669499 -0.17955711 0.07040474
0.049397036 0.05800013 -0.13162823 -0.02329483 -0.0019513514 0.0015076781 -0.060526222 0.0608209
0.057803724 -0.0052151075 -0.035668608 -0.016509904 0.022348216 0.09804323 -0.08802256 -0.02225071
0.050196372 -0.02917695 -0.0049919123 -0.008420959 0.023145087 -0.14026318 -0.13579856 -0.10967577
-0.12257931 -0.01857583 0.044275865 -0.040752746 0.07022767 0.10555924 0.058754943 0.051366642
0.044649124 -0.048900858 0.038194925 -0.020824276 0.039670527 -0.009673122 0.0805936 -0.024533413
0.0681663 -0.122038856 0.008851185 0.11297035 -0.09863694 -0.11819483 0.06276401 0.003416129
0.0618165 -0.1036555 0.051315144 -0.034145217 0.00041291045 0.0045615463 -0.12052116 -0.11271528
-0.0889872 0.06325653 0.031782217 0.09607475 -0.10443519 0.08197892 -0.015964353 -0.024706826
00000000: 60a6 923e e19e 783d 5aa3 db3d 00b2 893e
00000010: cb1f 3cbe ba14 dabd 02aa f93d f239 993d
00000020: d0d7 85bd b802 803e 75c1 2bbe 79a5 70bd
00000030: 6625 843e e012 0bbe d7b7 333e c706 283d
00000040: 69d0 c7bd fc27 e53d 3bf6 f63d 305e c4bc
00000050: 1ed7 5b3e 21b6 c73c a4da 7bbe b1bb 10be
00000060: 38b3 7cbe 6c54 c6bd a6c3 ddbd f9c8 6ebe
00000070: b357 d33d bda3 90bd a0ed 32be 0094 163e
00000080: c42d b03d 7012 a6bd 9bcb 57be 7d09 fb3d
00000090: c641 513e 9d7b fdbd 0ba9 2a3e ce43 8f3e
000000a0: 07f8 033e 6066 703c 067b 713e cc3a 7b3e
000000b0: bbdb 90ba 8bf6 583e 7639 7bbe 36fd 4b3e
000000c0: 4be8 4dbc f589 303e aaab f5bd c935 05be
000000d0: 8038 5cbe a0c1 2c3e dafd 523e cde8 823e
000000e0: d1fc 86be 97f5 62bd 57be b63d c56a 62bd
000000f0: 4cba 04bd 1638 83be 1a63 c53d 7091 afbc
00000100: 3925 b03d 3202 fc3d 7e34 853d ef9b c03d
00000110: 63ce 65be d55d 03be 5fc6 603e 225f 3a3e
00000120: 1fc8 94be 0b25 633e c78b 85be c755 03be
00000130: f08f 733e d267 3ebe 8126 203e 3fad 62be
00000140: 022f 4b3e 7651 cdbd 953d 9e3d 52d2 ba3d
00000150: cc73 5d3e 6b1e 253e 0b8d 80bd 335f 42be
00000160: 7722 d4bd 6aa9 7a3e 40eb 0b3b 6ffe 86be
00000170: 0f54 013e a125 92be f8c6 85bd f232 4c3e
00000180: f03d e23d 0445 15bd e7e9 6ebe 2255 733e
00000190: a334 2f3e f1a7 94be 3065 1f3e fa06 223e
000001a0: 12ba 05be ec32 f6bd d77d 993e 7936 1d3e
000001b0: 1b66 b2bd 7cb4 3a3e 37a5 cb3c 446c 263e
000001c0: 29c3 3fbe 4aa9 413e 808a af3d a53c 82bc
000001d0: 71cf 5e3e be41 063e d2b3 a03c ef73 7f3e
000001e0: f44b f9bb 87ac bdbc e1f4 4bbb 6fa8 3fbe
000001f0: a076 b43d 542d 87be 79bf 8b3d 86ff 47bd
00000200: a0a9 f83d 1efa 9fbe 0fb2 06bd 459b bcbd
00000210: ae06 dcbd 78a2 0c3e 2ecc 35be 6f04 523e
00000220: 4bc4 6bbe 91c1 803e d561 873e 972b b23d
00000230: f5e5 233e 0371 653e 0af1 ebbd f127 2bbe
00000240: da07 e7bd c8d6 fabc 35d8 323e aa92 ef3d
00000250: 4dfd 7bbe 9090 93bd a19a bd3c 920d a9be
00000260: 6b84 593e 81c5 883e d05c c23d 8fda 483e
00000270: 7624 913e 1303 503c b055 42be 1f68 b5bc
00000280: f8c2 0cbd d2d3 a6bd e15a 083e ed80 62bd
00000290: 7766 2abe 9f05 8d3e 0089 cdbd b111 12be
000002a0: d2ad 9fbe 7815 093d 41a6 693e fec9 9a3d
000002b0: 202f 743e e0ce 81be 7206 9abd be51 0fbe
000002c0: 3031 86be 3043 2ebe 9c86 543d 463a dabc
000002d0: 5a46 8d3e f0f3 eb3d ed13 913b 83c3 7e3e
000002e0: 7ac1 313d 1f0d 0f3e 74cc 593e 4e37 823e
000002f0: 286a 543d eaf4 2a3e d2dd 37be 5c30 903d
00000300: 8c54 4a3d 8b91 6d3d 8dc9 06be cdd4 bebc
00000310: 7dc4 ffba 489d c53a 58ea 77bd 561f 793d
00000320: 99c3 6c3d 7ee3 aabb 3f19 12bd c73f 87bc
00000330: 9b13 b73c e4ca c83d 2c45 b4bd 1f47 b6bc
00000340: b69a 4d3d 8004 efbc 3293 a3bb 10f8 09bc
00000350: c49a bd3c 27a1 0fbe c70e 0bbe b19d e0bd
00000360: dc0a fbbd 572c 98bc 9c5a 353d 5aec 26bd
00000370: 86d3 8f3d 712f d83d 06a9 703d d465 523d
00000380: 00e2 363d 444c 48bd 4872 1c3d ac97 aabc
00000390: 907d 223d 047c 1ebc 420e a53d 4cfa c8bc
000003a0: c69a 8b3d 82ef f9bd 9004 113c 005d e73d
000003b0: 2a02 cabd 2210 f2bd 6b8a 803d 22e1 5f3b
000003c0: 4c33 7d3d 5649 d4bd d42f 523d dbdb 0bbd
000003d0: e77b d839 0679 953b ccd3 f6bd 45d7 e6bd
000003e0: ec3e b6bd a48c 813d 122e 023d d7c2 c43d
000003f0: 1ee2 d5bd 90e4 a73d adc7 82bc f865 cabc

model.2.bias f4 [64]
-0.06582505 0.14280687 0.10691414 -0.0938035 -0.02239056 0.009922542 0.19891645 0.024123538
0.05164604 -0.046715915 0.19767243 0.097896084 0.10229006 0.043050524 -0.009603719 -0.067275696
0.055587564 0.07515487 0.04780929 0.0030594054 0.017437365 -0.07410759 0.073757865 0.23563524
0.043270607 0.021938236 0.20542881 -0.024924517 -0.07288307 0.06463606 0.14738393 0.009273373
-0.1164818 0.07797555 0.0769051 0.17843755 -0.094330564 0.17862041 0.107080236 0.15445842
0.09996372 0.14356457 0.15071155 0.21082582 -0.057944637 0.1811721 -0.0727448 0.21931875
0.016510218 0.11702036 0.25556898 0.0030347286 0.045377027 0.025529632 0.07666086 0.16309385
-0.023897305 0.0065871244 -0.010591641 0.08137487 -0.023577081 -0.0046789073 0.16961241 -0.054151468
00000000: 49cf 86bd f73b 123e cdf5 da3d 0d1c c0bd
00000010: 686c b7bc 2892 223c c1b0 4b3e ba9e c53c
00000020: cc8a 533d 3059 3fbd a46a 4a3e be7d c83d
00000030: 737d d13d bf55 303d eb58 1dbc d7c7 89bd
00000040: c9af 633d ccea 993d add3 433d 4e80 483b
00000050: ced8 8e3c b8c5 97bd 5d0e 973d 5d4a 713e
00000060: 853c 313d d1b7 b33c ee5b 523e 802e ccbc
00000070: b843 95bd e95f 843d d0eb 163e 58ef 173c
00000080: 038e eebd a5b1 9f3d 6c80 9d3d 55b8 363e
00000090: 6230 c1bd 45e8 363e e24c db3d 592a 1e3e
000000a0: c7b9 cc3d 9702 133e 2154 1a3e b9e2 573e
000000b0: 5b57 6dbd 2e85 393e 3afb 94bd 1895 603e
000000c0: 7040 873c 5fa8 ef3d f0d9 823e 4ce2 463b
000000d0: 43dd 393d 8523 d13c 5e00 9d3d 1302 273e
000000e0: 48c4 c3bc ced8 d73b 9088 2dbc dea7 a63d
000000f0: b924 c1bc 8551 99bb e0ae 2d3e eecd 5dbd

model.4.weight f4 [28, 64]
-0.17489101 -0.20185351 -0.2423607 0.048377063 -0.08174239 -0.30186504 -0.1373247 -0.1197148
0.18624254 -0.3142467 0.2587745 0.114565894 0.029506003 -0.0947168 -0.14358935 -0.23215458
-0.18890049 0.038888086 0.07712862 -0.19353591 0.19420941 0.06234823 -0.08489202 0.23103514
0.13555464 -0.279907 0.17431861 0.117272794 -0.057207167 0.043975495 0.20232476 0.21179691
-0.0041277367 0.081519336 0.22056071 0.04695536 -0.010073148 -0.04370043 0.05365007 0.25428978
-0.28191668 0.07073601 -0.27302074 0.09350202 0.080887906 -0.02932526 0.074545786 0.07760739
0.009995516 0.13154598 0.022750573 -0.19864409 0.100348376 0.12612896 -0.04956206 -0.25745115
-0.03226149 -0.02548328 0.05320382 0.24634448 6.837091e-05 0.05339863 -0.2239497 -0.1722003
0.057514753 0.13073255 -0.15650786 -0.04794615 0.013991982 0.16382554 0.2183832 0.054060914
-0.26523036 0.22190747 -0.22278093 -0.05230249 -0.14957434 -0.17901343 -0.081769705 0.049412794
0.18114895 -0.17241308 0.14629307 0.28515 0.24929933 0.029896826 0.18429297 -0.21550007
-0.070595086 0.097776465 -0.11047934 0.064605236 -0.04362847 -0.25862452 -0.26116803 0.09339614
0.10909641 0.06335268 -0.18478635 0.10158767 -0.034608882 -0.2341943 -0.09344938 -0.27013543
0.21489474 -0.13575163 0.0077972347 -0.07842916 -0.076070726 0.04102514 0.11066535 0.28202358
0.009578077 -0.26831424 -0.27521095 0.18439955 -0.2981351 -0.043873467 0.042904634 0.18212579
0.061509058 -0.0073629282 -0.027550235 -0.068600245 0.03457093 -0.17092405 0.17084982 0.05448562
-0.12163794 0.23900266 0.2175812 0.06917647 -0.12204537 -0.23473744 0.110396236 -0.06451764
-0.07607239 -0.116181105 -0.056294333 -0.066682786 -0.024412798 -0.23389845 -0.21875095 -0.16224258
-0.27040032 -0.21822383 0.2359624 -0.08733577 0.17746575 0.06096889 0.17392793 -0.0496006
0.21663927 0.31615052 -0.08942782 0.094392434 0.070608005 -0.08885289 -0.28279603 -0.16338505
-0.11709499 -0.06987622 -0.23184599 0.19366284 0.008942013 -0.124372885 0.12984793 -0.003435053
0.26413015 -0.060151193 0.23093973 -0.29655823 0.07161985 0.10363581 -0.10811196 0.17033648
-0.27669293 -0.08053765 -0.21324979 -0.18040617 -0.19660969 0.25025466 -0.1438612 0.2671537
0.095026255 -0.17820945 -0.04240629 0.22695363 -0.024180332 -0.040276043 0.27842373 -0.2940115
0.23786232 0.112793505 -0.26658788 -0.049070213 -0.027155936 0.24363445 0.08595434 0.22532149
-0.23574075 -0.28254905 -0.0822669 -0.20381284 0.01383089 0.12603515 -0.25526568 0.06492232
-0.29674795 0.060828507 0.23379831 0.051532757 0.089858696 0.06894216 0.16005652 -0.06540129
0.12697832 -0.003065435 0.009427977 0.11620328 0.1128899 -0.24024065 -0.06645075 -0.23232347
-0.023843177 0.04355996 -0.22143501 0.1783507 -0.014388568 0.20451765 0.18377356 -0.07079745
0.09532855 0.20292227 0.23526238 -0.29117912 0.07347682 0.2688443 -0.07665028 0.09387054
-0.23681568 -0.22131486 -0.14125693 -0.1164604 -0.20084298 0.28976795 0.1215119 0.21931122
0.024583638 -0.17314467 0.040168896 -0.10617777 0.007236697 0.18931061 0.17314692 -0.0446103
00000000: a116 33be b0b2 4ebe 672d 78be 0727 463d
00000010: 8e68 a7bd 0e8e 9abe d99e 0cbe 082d f5bd
00000020: 5db6 3e3e f2e4 a0be 177e 843e 86a1 ea3d
00000030: 93b6 f13c e2fa c1bd 1609 13be eeb9 6dbe
00000040: 216f 41be 1d49 1f3d 9cf5 9d3d 472e 46be
00000050: d5de 463e dc60 7f3d dedb adbd 7a94 6c3e
00000060: d6ce 0a3e f84f 8fbe 9480 323e b82c f03d
00000070: 1052 6abd a61f 343d 392e 4f3e 4ae1 583e
00000080: f741 87bb 9cf3 a63d abda 613e 4354 403d
00000090: d809 25bc 39ff 32bd 2dc0 5b3d 4532 823e
000000a0: 6257 90be 0bde 903d 60c9 8bbe fd7d bf3d
000000b0: 8fa8 a53d 873b f0bc 76ab 983d a0f0 9e3d
000000c0: 3cc4 233c fdb3 063e 695f ba3c 5b69 4bbe
000000d0: 7383 cd3d f327 013e 9601 4bbd a3d0 83be
000000e0: a024 04bd 50c2 d0bc 40ec 593d ba41 7c3e
000000f0: 5a62 8f38 86b8 5a3d 1253 65be 4755 30be
00000100: 9794 6b3d c1de 053e 9943 20be 2f63 44bd
00000110: a03e 653c e2c1 273e d89f 5f3e fa6e 5d3d
00000120: 46cc 87be b63b 633e af20 64be 233b 56bd
00000130: 042a 19be 4c4f 37be e076 a7bd 1265 4a3d
00000140: 1c7f 393e 0e8d 30be dacd 153e 2eff 913e
00000150: 5348 7f3e 30ea f43c 4cb7 3c3e 0dac 5cbe
00000160: 2894 90bd 073f c83d fe42 e2bd c04f 843d
00000170: c4b3 32bd 6f6a 84be d1b7 85be 7a46 bf3d
00000180: f06d df3d 0dbf 813d a238 3dbe 320d d03d
00000190: 0bc2 0dbd a1d0 6fbe 6362 bfbd 314f 8abe
000001a0: 5e0d 5c3e 7a02 0bbe f27f ff3b 789f a0bd
000001b0: f8ca 9bbd fa09 283d 84a4 e23d 6565 903e
000001c0: 5eed 1c3c 7c60 89be 73e8 8cbe 3cd3 3c3e
000001d0: 2aa5 98be aab4 33bd c5bc 2f3d 2f7f 3a3e
000001e0: ecf0 7b3d b844 f1bb 08b1 e1bc 497e 8cbd
000001f0: 3f9a 0d3d b706 2fbe 41f3 2e3e 502c 5f3d
00000200: 501d f9bd 1dbd 743e 9bcd 5e3e 65ac 8d3d
00000210: ecf2 f9bd 035f 70be 6c17 e23d d321 84bd
00000220: d7cb 9bbd 5cf0 edbd e394 66bd fc90 88bd
00000230: 59fd c7bc 1383 6fbe 4000 60be eb22 26be
00000240: e971 8abe 1176 5fbe 21a0 713e 19dd b2bd
00000250: 95b9 353e 84ba 793d 2a1a 323e 002a 4bbd
00000260: afd6 5d3e 7bde a13e ef25 b7bd d250 c13d
00000270: ee9a 903d 81f8 b5bd a4ca 90be 694e 27be
00000280: 80cf efbd 431b 8fbd 0969 6dbe 8d4f 463e
00000290: 8581 123c 36b7 febd dbf6 043e a01e 61bb
000002a0: 113c 873e 1961 76bd 777b 6c3e 7bd6 97be
000002b0: 6ead 923d 033f d43d ce69 ddbd b06c 2e3e
000002c0: b2aa 8dbe ecf0 a4bd 275e 5abe 65bc 38be
000002d0: 0d54 49be 6121 803e 5a50 13be 5fc8 883e
000002e0: 209d c23d 8a7c 36be 38b2 2dbd 8866 683e
000002f0: d515 c6bc 7ef8 24bd 8e8d 8e3e ad88 96be
00000300: 2e92 733e 4800 e73d 357e 88be d9fd 48bd
00000310: 2076 debc 4f7b 793e d408 b03d adba 663e
00000320: 0666 71be 45aa 90be 8c7b a8bd 50b4 50be
00000330: f59a 623c 5c0f 013e 2fb2 82be fef5 843d
00000340: 59ef 97be 5027 793d d368 6f3e 0314 533d
00000350: d607 b83d 8c31 8d3d dbe5 233e 1df1 85bd
00000360: 9b06 023e 77e5 48bb cd77 1a3c fcfb ed3d
00000370: d232 e73d a501 76be 5517 88bd 34e6 6dbe
00000380: c452 c3bc ee6b 323d dcbf 62be 91a1 363e
00000390: 07be 6bbc 136d 513e 232f 3c3e 41fe 90bd
000003a0: 9d3b c33d dbca 4f3e 9fe8 703e 6e15 95be
000003b0: 047b 963d f6a5 893e d2fa 9cbd 333f c03d
000003c0: cf7f 72be 5da0 62be a8a5 10be ca82 eebd
000003d0: c8a9 4dbe 775c 943e 3bdb f83d 1f93 603e
000003e0: a063 c93c d64c 31be 2488 243d bb73 d9bd
000003f0: d021 ed3b a4da 413e 6d4d 313e 4ab9 36bd

model.4.bias f4 [28]
0.103638165 0.12865515 -0.07885491 0.009698304 -0.15054381 -0.0007912917 0.009834759 0.1179794
-0.018692993 -0.124961555 -0.080602325 0.15500602 0.085830495 -0.029052926 -0.006302568 0.117978364
-0.0024424775 -0.137976 0.02235707 -0.04574471 -0.10934379 -0.06798099 -0.05109035 -0.07187344
0.18804206 -0.032393567 -0.05088287 0.023140294
00000000: 3f40 d43d 2dbe 033e af7e a1bd a3e5 1e3c
00000010: 2828 1abe b06e 4fba f821 213c 2f9f f13d
00000020: 0c22 99bc d8eb ffbd d512 a5bd e6b9 1e3e
00000030: e6c7 af3d 6700 eebc c685 cebb a49e f13d
00000040: f911 20bb 9549 0dbe 2d26 b73c ce5e 3bbd
00000050: a3ef dfbd 9e39 8bbd 1d44 51bd 6232 93bd
00000060: 198e 403e 1eaf 04bd 8e6a 50bd b790 bd3c
